jetbotenv/miniworld_model/trained_models/MiniWorld-Hallway-v0_yolo11_98.pt (torch, 42433 bytes, 11 tensors)

weight f4 [64, 4]
0.5616592 -0.77519757 0.020428015 -0.3040284 0.764197 0.26627904 -0.38171044 -0.4472678
0.4660259 0.41643947 -0.61291385 -0.48346075 -0.46794802 0.49773115 -0.012711509 0.73015535
-0.61781806 -0.53476727 -0.57647586 0.00067239854 0.29343957 0.061995517 0.05887801 -0.95214665
0.18971261 0.24592966 0.6761441 0.6680994 0.096844636 0.26500624 -0.19376282 -0.9396004
0.12702431 0.42606634 0.3140668 -0.83837306 -0.33709243 -0.62100214 0.7062991 -0.013241035
0.40117896 0.031378582 -0.8128579 0.41911203 -0.89905035 -0.05748482 0.13298102 0.39176825
-0.32224566 0.5385034 0.00055213127 -0.77857023 -0.48769757 0.4090276 0.6028456 -0.47642252
0.90293384 -0.19807354 -0.11021749 -0.37366685 0.42029476 0.25760975 -0.62518 0.6050947
-0.26871833 -0.07927076 0.69945776 -0.6597183 0.46678495 -0.41840374 0.7072595 0.26305735
-0.14515083 0.98799294 -0.016716994 -0.05021669 -0.27473795 -0.28239432 -0.18823665 -0.89963305
0.21671604 -0.8158688 -0.535859 -0.015732761 -0.6258134 0.34619418 -0.62647444 -0.26871768
-0.40483236 0.7714324 0.39380744 -0.29311854 -0.7240257 0.20875913 -0.51273596 -0.4114707
-0.4979024 0.3144174 -0.3928179 0.70132047 -0.13653187 -0.8750458 -0.46382433 -0.022827135
-0.03889053 -0.95034146 0.22852159 0.20764509 -0.086398624 0.28868034 0.17458633 0.9373999
0.41163135 0.62512594 0.66154385 0.046225682 -0.934515 -0.07734952 0.13273482 0.33854973
0.8545046 -0.18614973 0.1043829 -0.48208833 -0.12490295 -0.42706236 0.6401616 -0.62835485
-0.020906487 0.56267077 0.60944533 0.5581585 -0.19136643 0.36909145 0.737496 -0.49171922
0.32067317 0.095663354 -0.6123188 0.716298 -0.77846044 0.11312314 -0.5035301 -0.35729545
0.523601 0.7048203 0.2479971 0.40935057 0.84204036 -0.24242398 -0.27557293 0.39517823
-0.16626678 -0.7700767 -0.24431443 -0.56537396 0.12738606 -0.45889494 -0.6911567 0.5142102
-0.4103947 -0.03336374 -0.59227884 -0.69258136 0.64109576 0.6223711 -0.3490064 -0.30324546
-0.61377054 -0.2923192 -0.4851523 0.5453014 -0.6516587 0.08481909 -0.059594873 -0.7513954
-0.76293105 0.07591203 -0.094551764 0.6386897 0.2529038 -0.4866557 0.19788833 -0.8124321
0.71062565 0.4771374 0.37861753 0.352136 -0.5325534 0.33793578 0.3597008 -0.68760574
0.35600835 0.9188364 -0.16378146 -0.04661867 -0.10867329 0.3782293 -0.15291364 -0.9065044
0.0036352768 0.62570214 -0.77937055 0.047249723 0.48900005 0.3474055 -0.7364897 -0.29780394
0.21758662 -0.40084353 0.4123467 0.7886384 0.24157852 0.9500234 -0.0016146372 -0.19771913
-0.49602345 0.010740962 0.7742211 -0.3892337 -0.73573494 0.42122507 0.4909006 0.20070806
0.12798627 0.4415902 0.01873525 -0.8878438 0.7087159 -0.42666894 0.4305622 0.3603664
-0.39004645 0.65764266 0.30973324 -0.57106906 -0.22315513 0.7686967 0.50327873 0.32560366
-0.45772427 -0.6390497 0.42914915 -0.44489866 0.72607434 0.47156206 -0.26871377 -0.37098753
-0.50721925 0.045256708 -0.79345787 0.3289434 0.60182583 0.6335269 0.36038345 0.32645524
00000000: e6c8 0f3f 5973 46bf a758 a73c 9ca9 9bbe
00000010: 6aa2 433f ba55 883e 8d6f c3be 4900 e5be
00000020: f29a ee3e 8e37 d53e ece7 1cbf 2b88 f7be
00000030: e296 efbe 9ed6 fe3e ef43 50bc 76eb 3a3f
00000040: 5329 1ebf 82e6 08bf ec93 13bf e743 303a
00000050: b63d 963e 03ef 7d3d 112a 713d e2bf 73bf
00000060: 0644 423e fcd4 7b3e c817 2d3f 9008 2b3f
00000070: 7b56 c63d e6ae 873e c369 46be a789 70bf
00000080: a912 023e 5e25 da3e 5dcd a03e 9e9f 56bf
00000090: 6197 acbe fff9 1ebf 05d0 343f edf0 58bc
000000a0: 5467 cd3e d486 003d 7517 50bf da95 d63e
000000b0: 2a28 66bf 3475 6bbd 2d2c 083e d995 c83e
000000c0: 62fd a4be 5cdb 093f e7bc 103a 6150 47bf
000000d0: 7fb3 f9be 116c d13e 1754 1a3f a7ed f3be
000000e0: ac26 673f cad3 4abe b5b9 e1bd 4351 bfbe
000000f0: e030 d73e 6de5 833e cc0b 20bf 7ce7 1a3f
00000100: 7395 89be b558 a2bd aa0f 333f 4ce3 28bf
00000110: 70fe ee3e 0439 d6be f50e 353f 74af 863e
00000120: 6ba2 14be 1bed 7c3f 14f2 88bc 04b0 4dbd
00000130: 74aa 8cbe fd95 90be 1cc1 40be 5a4e 66bf
00000140: cfea 5d3e c7dc 50bf 0e2e 09bf fee1 80bc
00000150: 4f35 20bf 5d40 b13e a160 20bf 5d95 89be
00000160: 3046 cfbe 987c 453f 21a1 c93e a213 96be
00000170: c059 39bf f4c4 553e aa42 03bf 4aac d2be
00000180: 10ed febe 51fb a03e 6e1f c9be bd89 333f
00000190: 03cf 0bbe 0003 60bf 627a edbe f9ff babc
000001a0: ad4b 1fbd 9449 73bf 9001 6a3e eaa0 543e
000001b0: c3f1 b0bd e9cd 933e c2c6 323e 71f9 6f3f
000001c0: 58c1 d23e 4108 203f f05a 293f 2457 3d3d
000001d0: 603c 6fbf 6d69 9ebd a3eb 073e 6456 ad3e
000001e0: d0c0 5a3f 099e 3ebe b4c6 d53d 48d4 f6be
000001f0: 1ecd ffbd eba7 dabe a1e1 233f dddb 20bf
00000200: 1544 abbc 310b 103f 9c04 1c3f 7ae3 0e3f
00000210: 90f5 43be 8ef9 bc3e 8acc 3c3f 9fc2 fbbe
00000220: 462f a43e 26eb c33d edc0 1cbf 4e5f 373f
00000230: 2f49 47bf 1bad e73d 59e7 00bf 6eef b6be
00000240: b70a 063f 1a6f 343f f4f2 7d3e 6696 d13e
00000250: f58f 573f fe3d 78be e517 8dbe cd54 ca3e
00000260: d741 2abe bf23 45bf 902d 7abe 59bc 10bf
00000270: 7e71 023e 47f4 eabe a5ef 30bf 48a3 033f
00000280: 411f d2be 6ba8 08bd 969f 17bf 034d 31bf
00000290: da1e 243f b653 1f3f f8b0 b2be fd42 9bbe
000002a0: 1120 1dbf ddaa 95be e265 f8be df98 0b3f
000002b0: 1bd3 26bf a2b5 ad3d c119 74bd 735b 40bf
000002c0: 734f 43bf c477 9b3d 5ba4 c1bd 2b81 233f
000002d0: 9b7c 813e f02a f9be 3da3 4a3e 8dfb 4fbf
000002e0: 90eb 353f 5a4b f43e 28da c13e 2b4b b43e
000002f0: 6b55 08bf eb05 ad3e b42a b83e ee06 30bf
00000300: ba46 b63e dd38 6b3f 54b6 27be 38f3 3ebd
00000310: 1a90 debd 45a7 c13e 6595 1cbe ac10 68bf
00000320: d33d 6e3b 042e 203f d484 47bf ed88 413d
00000330: 375e fa3e 22df b13e 978a 3cbf c279 98be
00000340: 07cf 5e3e 5d3b cdbe 1b1f d33e 35e4 493f
00000350: 5c60 773e bc34 733f 3ca2 d3ba e276 4abe
00000360: c9f6 fdbe dcfa 2f3c 5b33 463f a449 c7be
00000370: 2059 3cbf d0aa d73e 5357 fb3e 6a86 4d3e
00000380: d50e 033e 1c18 e23e ab7a 993c bb49 63bf
00000390: 686e 353f 5a74 dabe a672 dc3e f281 b83e
000003a0: 2bb4 c7be 455b 283f 5b95 9e3e 9531 12bf
000003b0: c782 64be 4fc9 443f e0d6 003f 86b5 a63e
000003c0: d65a eabe c398 23bf 70b9 db3e c2c9 e3be
000003d0: 02e0 393f 9570 f13e da94 89be 14f2 bdbe
000003e0: 1fd9 01bf 195f 393d 0e20 4bbf 456b a83e
000003f0: 4211 1a3f d22e 223f 2e84 b83e 2425 a73e

bias f4 [64]
0.029014094 0.0021066868 0.017770225 0.01867507 -0.007079244 0.020722894 0.014642208 -0.0067671696
-0.00061816024 -0.010063152 0.008484344 0.015493237 0.016000625 -0.014126951 0.0007221461 0.0029312184
0.012104316 -0.018853648 0.0036978887 0.017325029 0.014674802 0.013254707 0.011477074 0.017931078
0.008981582 0.015843263 0.012619661 -0.00483168 -0.012166178 0.011744795 -0.006888091 0.009206968
-0.001535996 -0.021312088 -0.035138912 -0.000111383975 0.014693921 0.00056907244 0.014702959 0.01816974
0.0076032244 0.006389154 0.03716969 0.01691487 0.00080051384 -0.018634839 0.011392174 0.011035938
-0.019119523 0.019918915 0.007910287 0.010872687 -0.003402347 -0.024510121 -0.0074227555 0.011170772
0.016319964 -0.013869984 0.013578774 -0.019283174 0.019897912 -0.03570111 0.022839384 0.009420844
00000000: f7ae ed3c 5710 0a3b dd92 913c 76fc 983c
00000010: 01f9 e7bb 0fc3 a93c dfe5 6f3c 22bf ddbb
00000020: 080c 22ba ebdf 24bc eb01 0b3c 59d7 7d3c
00000030: be13 833c ba74 67bc 684e 3d3a af19 403b
00000040: 2e51 463c f772 9abc 4758 723b 38ed 8d3c
00000050: 956e 703c 452a 593c 560a 3c3c 32e4 923c
00000060: 7c27 133c bbc9 813c b2c2 4e3c 1253 9ebb
00000070: a654 47bc 3e6d 403c 7fb5 e1bb d3d8 163c
00000080: 7953 c9ba b096 aebc d2ed 0fbd d196 e9b8
00000090: c6be 703c ce2d 153a aee4 703c b5d8 943c
000000a0: 7824 f93b 1c5c d13b 3f3f 183d 0e91 8a3c
000000b0: 93d9 513a 17a8 98bc 3ea6 3a3c 14d0 343c
000000c0: 8ca0 9cbc fe2c a33c 269a 013c 5b23 323c
000000d0: e9f9 5ebb 73c9 c8bc 963a f3bb 9d05 373c
000000e0: 72b1 853c ee3e 63bc 8279 5e3c bff7 9dbc
000000f0: f200 a33c 543b 12bd a919 bb3c e259 1a3c

weight f4 [64, 64]
0.038393337 0.074372955 0.040388558 0.006479134 -0.05097442 0.044018164 0.03617334 0.24075505
0.3156141 -0.05073759 0.0802353 -0.14845216 0.12137725 -0.086211234 -0.020588763 -0.1260968
-0.079720005 -0.12616037 0.040243298 -0.09846926 -0.17049354 0.109172665 0.06471558 0.19366732
0.063534446 -0.010267831 0.06838217 -0.085847236 -0.069111295 -0.1769228 -0.10188378 -0.13082826
-0.06284928 -0.032749332 -0.16873853 0.25349858 -0.047967244 0.1748813 -0.09165905 0.13152163
0.21149397 -0.14308274 0.19273704 0.00860958 0.24962224 0.15274614 -0.06708399 -0.11854558
-0.06619858 0.096620716 0.07611239 -0.058179446 0.015555291 -0.007290783 -0.012555733 -0.20225284
-0.1269828 0.03829406 -0.10529317 0.013497053 0.20076779 -0.25991723 0.11577723 -0.13749583
0.322287 0.1557825 -0.10431345 0.014067247 -0.052340154 -0.13221985 0.022041569 -0.19052272
-0.10529296 -0.136173 -0.13835429 0.122773744 0.0069428417 -0.095919 0.10488434 0.062398996
0.0666754 -0.076415844 0.07897747 0.03841387 -0.16635147 -0.040727876 0.046163972 0.08711352
0.13517238 -0.022458766 0.12983318 -0.05932437 -0.06740716 0.0026746271 -0.20041578 -0.08222736
0.13761371 -0.2333684 -0.019002488 0.09592361 -0.059848286 -0.013721227 0.08728096 0.2643496
-0.16446608 0.070871115 0.17711893 -0.09055974 -0.021890478 0.18365812 0.09899392 0.034504812
-0.17535856 0.18755995 -0.078068264 -0.13448948 -0.094535515 -0.03732996 -0.04189949 0.14227362
0.13555586 0.04026801 -0.08055628 -0.13835196 -0.013841752 -0.37752476 0.2510705 -0.05873217
0.16329215 -0.024653843 0.050657008 0.15392134 0.11059437 -0.09169246 0.06408841 -0.11049765
0.028086739 0.026693305 0.114260055 -0.039320476 0.24303503 -0.0072549894 -0.08238168 0.07335628
-0.07464451 -0.051751565 0.0045907353 -0.041153263 -0.04032917 0.09222026 -0.0743694 0.0021129053
-0.2783467 0.10298921 0.15402418 -0.16081235 -0.06416792 0.260663 -0.1631947 0.0070423624
0.096582934 -0.22852339 0.004876846 -0.015226387 0.07471725 0.07362849 0.018195085 0.30250835
0.058596708 0.14545579 -0.10531843 0.21823488 0.097733505 -0.16241609 -0.19207026 -0.05322424
-0.20394339 0.13483708 -0.01520401 -0.051872313 0.17589769 -0.13431261 -0.2100867 -0.25150123
-0.0422412 -0.02923783 -0.007085002 -0.062157597 -0.00059887866 0.0013732453 -0.23453926 0.03540862
0.35248885 0.16809645 -0.05016138 0.013445384 -0.14042464 0.074219525 0.1810068 -0.17796914
0.0980099 0.094464704 0.119005576 0.06169641 0.0015772759 -0.17499265 -0.05551693 0.0065314253
-0.021900758 0.053902052 0.0446516 -0.1366919 0.044312794 0.09799345 0.19779953 0.10239053
0.048159096 -0.21142995 0.05642223 0.17078532 0.08771394 0.12111891 0.051053572 0.20225225
-0.20601368 -0.123440035 -0.0774454 -0.091777384 0.10631184 -0.23809291 0.12743933 0.100401334
0.11378258 0.0141023565 0.37101737 -0.033019442 0.14006503 -0.13414961 0.12565278 -0.023213439
0.07557947 0.040035587 0.01894802 0.04112666 -0.105492055 -0.08351409 -0.03760039 -0.1295484
0.12657054 0.013487752 0.07375294 0.015121542 -0.11809598 -0.20796767 0.15083727 -0.035857163
00000000: 5542 1d3d d950 983d 796e 253d ea4e d43b
00000010: 8eca 50bd 644c 343d 7f2a 143d 7e88 763e
00000020: 2c98 a13e 38d2 4fbd 6852 a43d d803 18be
00000030: a394 f83d 848f b0bd c4a9 a8bc 851f 01be
00000040: 3e44 a3bd 2f30 01be 28d6 243d 40aa c9bd
00000050: dc95 2ebe eb95 df3d 9a89 843d ba50 463e
00000060: 591e 823d 683a 28bc f30b 8c3d add0 afbd
00000070: 398a 8dbd 402b 35be 71a8 d0bd d8f7 05be
00000080: 20b7 80bd 2a24 06bd cbc9 2cbe 91ca 813e
00000090: 4d79 44bd 1514 333e bdb7 bbbd 9bad 063e
000000a0: e091 583e 4884 12be dc5c 453e 320f 0d3c
000000b0: f99c 7f3e 7c69 1c3e 5563 89bd 06c8 f2bd
000000c0: 1f93 87bd 15e1 c53d d0e0 9b3d 924d 6ebd
000000d0: 9fdb 7e3c 85e7 eebb 90b6 4dbc 5e1b 4fbe
000000e0: c707 02be 3bda 1c3d f2a3 d7bd be22 5d3c
000000f0: 1296 4d3e df13 85be 9d1c ed3d b5cb 0cbe
00000100: cd02 a53e 7385 1f3e 4aa2 d5bd 4f7a 663c
00000110: a162 56bd a464 07be 8590 b43c 6318 43be
00000120: d6a3 d7bd ef70 0bbe bfac 0dbe cd70 fb3d
00000130: c780 e33b 2e71 c4bd 9acd d63d 1796 7f3d
00000140: 1d8d 883d e97f 9cbd f1be a13d dd57 1d3d
00000150: 0a58 2abe 46d2 26bd 6f16 3d3d 9368 b23d
00000160: a16a 0a3e 72fb b7bc fdf2 043e 1cfe 72bd
00000170: c40c 8abd cc48 2f3b cb39 4dbe d166 a8bd
00000180: 9cea 0c3e 20f8 6ebe 1bab 9bbc 9973 c43d
00000190: 7a23 75bd ffce 60bc 5cc0 b23d d558 873e
000001a0: cc69 28be e024 913d aa5e 353e 6377 b9bd
000001b0: a953 b3bc e010 3c3e 53bd ca3d eb54 0d3d
000001c0: 3291 33be b70f 403e 41e2 9fbd 9cb7 09be
000001d0: d69b c1bd 4de7 18bd cd9e 2bbd 2db0 113e
000001e0: 28cf 0a3e 12f0 243d b1fa a4bd 23ac 0dbe
000001f0: 84c8 62bc ed4a c1be 508c 803e 2591 70bd
00000200: 0f36 273e dbf6 c9bc b97d 4f3d 8e9d 1d3e
00000210: 4d7f e23d 42c9 bbbd c940 833d 984c e2bd
00000220: 2916 e63c ebab da3c 2d01 ea3d 820e 21bd
00000230: 2dde 783e 43bb edbb bab7 a8bd d13b 963d
00000240: 39df 98bd 73f9 53bd e16d 963b 5390 28bd
00000250: 3330 25bd fadd bc3d fc4e 98bd ab78 0a3b
00000260: 7583 8ebe 02ec d23d 84b8 1d3e feab 24be
00000270: 786a 83bd 9f75 853e 831c 27be 9ec3 e63b
00000280: 46cd c53d 0902 6abe f3cd 9f3b 1978 79bc
00000290: 5c05 993d 89ca 963d dc0d 953c 60e2 9a3e
000002a0: 1a03 703d 5df2 143e 30b1 d7bd f778 5f3e
000002b0: 8128 c83d 6750 26be 11ae 44be a901 5abd
000002c0: 89d6 50be bb12 0a3e 3d1a 79bc 1078 54bd
000002d0: 861e 343e 3f89 09be f820 57be c5c4 80be
000002e0: 1c05 2dbd 2c84 efbc 4e29 e8bb f798 7ebd
000002f0: 11fe 1cba 77fe b33a 0f2b 70be a108 113d
00000300: 6b79 b43e 7a21 2c3e 0576 4dbd 074a 5c3c
00000310: 7acb 0fbe 6800 983d d959 393e 8b3d 36be
00000320: 6ab9 c83d b676 c13d 32b9 f33d 60b5 7c3d
00000330: 99bc ce3a 4631 33be b865 63bd 9105 d63b
00000340: 3869 b3bc 66c8 5c3d 99e4 363d f6f8 0bbe
00000350: 5581 353d cab0 c83d f68b 4a3e 20b2 d13d
00000360: 7942 453d 1881 58be ff1a 673d 59e2 2e3e
00000370: 5ea3 b33d 310d f83d 8d1d 513d 371b 4f3e
00000380: 40f5 52be 21ce fcbd b29b 9ebd c8f5 bbbd
00000390: 06ba d93d a1ce 73be 757f 023e 379f cd3d
000003a0: d706 e93d 920d 673c fdf5 bd3e 653f 07bd
000003b0: 356d 0f3e 845e 09be 1fab 003e 1c2a bebc
000003c0: 69c9 9a3d 5bfc 233d e138 9b3c 6e74 283d
000003d0: 380c d8bd 6f09 abbd de02 1abd 56a8 04be
000003e0: b59b 013e bbfb 5c3c c80b 973d 58c0 773c
000003f0: 4edc f1bd 7af5 54be 1675 1a3e f6de 12bd

bias f4 [64]
0.018310005 0.004714131 0.002023668 -0.0022371928 -0.011521618 -0.014865015 -0.0025117607 -0.011956547
-0.010448588 0.0015293863 -0.0062683714 -0.0021653941 0.0015210629 0.015568243 0.0066006463 -0.005766255
0.009649996 -0.0006075005 -0.0014831409 0.0035596055 0.0008262436 -0.013237144 0.0047318977 0.010862163
0.0076061445 -0.01303851 0.0028492378 0.020688884 -0.024084084 0.015168199 0.00999236 0.0044496595
-0.0044083097 0.010912969 -0.008411528 -0.009382351 -0.0057409466 0.019528663 0.006025403 -0.016531091
0.018615438 -0.00974368 -0.012822744 0.00067106297 -0.0047009075 -0.011032618 0.003563154 -0.0035594592
0.006119027 0.0021277394 0.015558623 0.016112307 0.010347728 -0.004469249 0.0012843716 -0.020078203
-0.006906075 -0.0044284975 -0.0089497315 0.0009146165 -0.0138276275 -0.0047197617 -0.011635583 -0.009290991
00000000: ddfe 953c ff78 9a3b 849f 043b de9d 12bb
00000010: 2bc5 3cbc 648c 73bc 5a9c 24bb 65e5 43bc
00000020: 8e30 2bbc b075 c83a e966 cdbb 49e9 0dbb
00000030: 675e c73a f211 7f3c 3c4a d83b daf2 bcbb
00000040: 041b 1e3c ab40 1fba f365 c2ba 4548 693b
00000050: 4598 583a 9be0 58bc 090e 9b3b 37f7 313c
00000060: f73c f93b 7a9f 55bc 47ba 3a3b bc7b a93c
00000070: fc4b c5bc 0a84 783c ffb6 233c 73ce 913b
00000080: 9573 90bb 4fcc 323c 81d0 09bc 6fb8 19bc
00000090: 8d1e bcbb 93fa 9f3c be70 c53b 366c 87bc
000000a0: 677f 983c f5a3 1fbc 7d16 52bc 46ea 2f3a
000000b0: 120a 9abb 27c2 34bc ce83 693b d145 69bb
000000c0: 1e82 c83b 8b71 0b3b 98e9 7e3c f5fd 833c
000000d0: 8489 293c c772 92bb 5c58 a83a 0b7b a4bc
000000e0: 5b4c e2bb ee1c 91bb e5a1 12bc e0c2 6f3a
000000f0: 468d 62bc 3ba8 9abb 2ca3 3ebc 3e39 18bc

weight f4 [64, 4]
0.46504772 -0.6303437 0.31112483 -0.5398979 -0.1385585 -0.3999565 -0.88434565 -0.19689861
-0.83501244 -0.2550282 -0.14537735 -0.46538186 0.44450825 0.81913024 0.33177334 0.14616637
0.5440942 0.8369641 0.006900084 0.058352154 0.848883 0.25884083 -0.44277808 -0.047024835
0.59813106 0.021962173 0.36488256 -0.71367407 -0.8581128 -0.029011032 -0.34330902 0.37813222
0.2993894 -0.6304974 -0.667181 0.2602089 0.8429987 0.055573262 -0.04527582 -0.5368188
0.54037684 -0.4128469 -0.5377843 0.49122784 -0.019348366 0.21695998 -0.766252 0.6029334
0.4091344 -0.002688288 0.8886968 -0.041301783 -0.015428309 0.11216793 0.8002244 0.5889152
0.28480268 0.6242614 0.3092958 -0.6621978 0.8647938 -0.16595533 -0.15383694 0.44824633
-0.4584948 -0.3414563 0.6382833 0.5155429 0.6194229 0.4831093 0.36310267 -0.45594355
-0.5826541 -0.14523649 0.7880013 -0.12516771 0.6218433 -0.17244013 0.63535327 -0.40077445
0.61002773 0.41985852 -0.3382458 -0.5820488 0.09621968 0.58858895 0.7683174 -0.23236433
0.65340066 0.032421276 0.18498053 0.7333475 -0.47090578 0.85588497 0.049045607 -0.20261844
0.3192358 0.8459791 0.42709213 0.00040875172 -0.62622046 -0.4325966 0.45390794 -0.4633311
-0.16136728 0.09561434 -0.81843364 -0.54312503 0.053459115 -0.8307175 -0.23401673 0.5022789
-0.16580032 -0.29385942 -0.88915 -0.30914283 0.28892237 -0.29149017 0.70806915 -0.57455516
-0.1601917 -0.49460056 -0.53901273 0.6729386 0.66846156 0.71648926 -0.02067729 -0.19843067
0.6416584 0.52191824 0.47355536 0.30268958 -0.25520515 0.5051635 -0.79371756 -0.18490751
-0.00065185275 0.300806 -0.21334924 -0.9295146 -0.09711283 0.6390176 0.68389016 0.33840778
-0.22915877 0.500776 0.5145796 -0.65606785 0.015219557 0.6685974 -0.6985105 -0.26265478
-0.27188677 0.636145 0.7217198 -0.022751458 -0.35107434 0.9031811 0.03089507 -0.22186881
-0.1348491 0.25515234 0.07106712 0.9548102 -0.5669975 -0.2508331 -0.47534156 -0.624217
-0.41403893 0.7576412 -0.36133653 0.3622548 0.1864838 0.5860383 -0.62787384 0.47698557
-0.38353822 -0.5389977 0.44610256 -0.6028039 -0.5207603 0.77956694 -0.23259406 0.27897298
-0.47833934 0.21491453 -0.26501012 -0.8091803 -0.32697907 -0.18606554 0.79573375 0.4746284
-0.08549366 0.35451868 -0.9442344 0.09301861 -0.4344938 -0.4860283 0.4980061 -0.57182306
0.22117503 0.2946469 -0.79141384 0.47764212 -0.25695807 0.584377 -0.30441493 -0.70697075
0.7975261 -0.59121746 0.019664876 0.00095265545 0.702815 0.32277024 0.1260392 -0.5823799
0.7962585 0.22106889 0.50711405 -0.28080246 0.5044219 -0.040446304 -0.7101504 0.48093718
-0.5324411 -0.12026719 0.11286104 -0.83024377 0.48126134 0.25448275 -0.65685827 0.5216927
0.14144422 -0.80174595 -0.42071122 0.40024862 0.61691976 0.3668833 -0.007924031 0.69623554
-0.544018 0.29258466 -0.8184925 0.034130696 0.44842914 0.63737905 -0.50909424 -0.31420884
-0.63224214 -0.24503613 0.7127423 -0.16904892 0.15703575 0.6225574 0.31416532 0.6993298
00000000: bc1a ee3e 345e 21bf c14b 9f3e c036 0abf
00000010: 48e2 0dbe 19c7 ccbe 7a64 62bf ca9f 49be
00000020: 60c3 55bf 0e93 82be cddd 14be 8846 eebe
00000030: 9696 e33e 85b2 513f 32de a93e a3ac 153e
00000040: c249 0b3f 4743 563f 1a1a e23b ab02 6f3d
00000050: 6550 593f c986 843e cfb3 e2be 1d9d 40bd
00000060: 1e1f 193f 04ea b33c e3d1 ba3e 58b3 36bf
00000070: 48ad 5bbf 8ba8 edbc 33c6 afbe 8c9a c13e
00000080: 9149 993e 4768 21bf 60cc 2abf 1a3a 853e
00000090: c3ce 573f caa0 633d 2373 39bd f56c 09bf
000000a0: 2356 0a3f ab60 d3be 3bac 09bf 3782 fb3e
000000b0: 7780 9ebc c22a 5e3e 1729 44bf d859 1a3f
000000c0: 107a d13e fd2d 30bb a281 633f 0f2c 29bd
000000d0: 05c7 7cbc 4db8 e53d 82db 4c3f 26c3 163f
000000e0: a8d1 913e 98cf 1f3f 055c 9e3e cc85 29bf
000000f0: 2063 5d3f 32f0 29be 6e87 1dbe 8b80 e53e
00000100: d5bf eabe 5cd3 aebe 8966 233f 9ffa 033f
00000110: 8092 1e3f 1a5a f73e 98e8 b93e 6f71 e9be
00000120: d228 15bf e0b8 14be 74ba 493f f72b 00be
00000130: 1f31 1f3f 2594 30be 83a6 223f 4f32 cdbe
00000140: c72a 1c3f b2f7 d63e 8e2e adbe 2601 15bf
00000150: d30e c53d c4ad 163f 73b0 443f eaf0 6dbe
00000160: 4445 273f 2ccc 043d 896b 3d3e a9bc 3b3f
00000170: 901a f1be 471b 5b3f 0ce4 483d 357b 4fbe
00000180: e072 a33e 1692 583f d2ab da3e ba4d d639
00000190: fc4f 20bf 4d7d ddbe 9f66 e83e bc39 edbe
000001a0: 773d 25be 73d1 c33d de84 51bf 3e0a 0bbf
000001b0: f2f7 5a3d e7a9 54bf 15a2 6fbe 5a95 003f
000001c0: 8fc7 29be be74 96be 569f 63bf f847 9ebe
000001d0: a2ed 933e 333e 95be 0544 353f 0c16 13bf
000001e0: 4b09 24be 493c fdbe bdfc 09bf b445 2c3f
000001f0: 4c20 2b3f d76b 373f 6c63 a9bc 6931 4bbe
00000200: ba43 243f 6f9c 053f d975 f23e 21fa 9a3e
00000210: 40aa 82be 6552 013f 1331 4bbf 6558 3dbe
00000220: 19e1 2aba 3e03 9a3e 3978 5abe abf4 6dbf
00000230: 17e3 c6bd a896 233f 6d13 2f3f c943 ad3e
00000240: 99a8 6abe db32 003f 7dbb 033f 10f4 27bf
00000250: 735b 793c 3329 2b3f 96d1 32bf b07a 86be
00000260: be34 8bbe 66da 223f a1c2 383f 4461 babc
00000270: 04c0 b3be e036 673f a817 fd3c 9431 63be
00000280: e215 0abe 54a3 823e a38b 913d 716e 743f
00000290: c026 11bf 326d 80be f85f f3be afcc 1fbf
000002a0: e9fc d3be c6f4 413f 1a01 b9be 7679 b93e
000002b0: 9cf5 3e3e 9b06 163f 57bc 20bf 7437 f43e
000002c0: 1f5f c4be c1fb 09bf 8e67 e43e 5b51 1abf
000002d0: 8c50 05bf b391 473f 232d 6ebe 8cd5 8e3e
000002e0: e5e8 f4be 8e12 5c3e 68af 87be 7126 4fbf
000002f0: cd69 a7be f787 3ebe 35b5 4b3f 7e02 f33e
00000300: 4d17 afbd 7983 b53e 58b9 71bf 8a80 be3d
00000310: f975 debe b4d8 f8be a8fa fe3e ff62 12bf
00000320: b57b 623e f5db 963e 199a 4abf 828d f43e
00000330: 0290 83be bb99 153f 46dc 9bbe 09fc 34bf
00000340: ac2a 4c3f 075a 17bf 3c18 a13c a0bb 793a
00000350: afeb 333f 2442 a53e 6c10 013e d916 15bf
00000360: 99d7 4b3f e25f 623e 3ad2 013f 57c5 8fbe
00000370: cb21 013f 06ab 25bd 6bcc 35bf 663d f63e
00000380: 0f4e 08bf a54e f6bd b023 e73d db8a 54bf
00000390: e367 f63e 904b 823e dd27 28bf a78d 053f
000003a0: c1d6 103e 393f 4dbf 7667 d7be 63ed cc3e
000003b0: 74ee 1d3f 21d8 bb3e cbd3 01bc 7e3c 323f
000003c0: c344 0bbf a8cd 953e b988 51bf a1cc 0b3d
000003d0: 8198 e53e 462b 233f 0054 02bf fbdf a0be
000003e0: 9fda 21bf c0ea 7abe 4876 363f 291b 2dbe
000003f0: fbcd 203e ec5f 1f3f 47da a03e 4707 333f

bias f4 [64]
-0.02461237 0.01807228 -0.03133017 0.037302054 -0.019367712 -0.022285024 0.019776117 -0.02072919
-0.025943702 -0.01625423 0.001426963 0.02666149 0.026593924 0.025683854 0.020415392 0.025547417
0.026330497 0.017914021 -0.009288739 0.021220425 0.021370808 0.024434239 0.0354825 0.02380101
-0.015759883 -0.040009387 -0.026486047 -0.00613168 -0.02523894 -0.02665588 0.01561906 0.024773153
0.00953114 -0.020180989 -0.029923633 0.026504591 0.032705728 -0.030686464 0.033161927 0.02781489
-0.022208128 0.016719362 -0.022679776 -0.019815845 -0.03731076 0.022474924 0.01979667 0.025423806
0.01938493 0.021623025 0.0040263147 0.021907182 -0.011809745 0.019483846 0.038029384 -0.019051742
0.020053722 -0.019226933 -0.03393637 0.03054476 -0.030997448 -0.025907153 -0.027491294 -0.021532742
00000000: e29f c9bc 510c 943c 1054 00bd 0aca 183d
00000010: 09a9 9ebc 158f b6bc 8601 a23c 43d0 a9bc
00000020: e387 d4bc 9727 85bc ef08 bb3a 3269 da3c
00000030: 80db d93c f266 d23c 2e3e a73c d148 d13c
00000040: 0eb3 d73c 6dc0 923c cc2f 18bc 75d6 ad3c
00000050: d511 af3c 502a c83c 1956 113d 56fa c23c
00000060: df1a 81bc e2e0 23bd 44f9 d8bc 43ec c8bb
00000070: e5c1 cebc 6f5d dabc 16e7 7f3c 11f1 ca3c
00000080: 8028 1c3c 9a52 a5bc 6822 f5bc 2820 d93c
00000090: 71f6 053d 2e62 fbbc cdd4 073d 0ddc e33c
000000a0: d2ed b5bc 0bf7 883c f0ca b9bc d754 a2bc
000000b0: 2bd3 18bd 551d b83c a02c a23c 9645 d03c
000000c0: 25cd 9e3c c522 b13c 2def 833b b176 b33c
000000d0: a97d 41bc 969c 9f3c b3c4 1b3d 6612 9cbc
000000e0: b447 a43c cd81 9dbc dd00 0bbd 0139 fa3c
000000f0: 5cee fdbc 3d3b d4bc 6c35 e1bc 6f65 b0bc

weight f4 [64, 64]
-0.1246023 -0.05794647 -0.2260897 -0.20344289 0.21251336 0.015055163 -0.2309349 0.010836788
0.029620508 0.06238563 -0.09221568 0.18355763 0.17316289 0.08284346 0.021368198 0.037170503
-0.10856801 0.08159817 -0.002103957 -0.25783336 -0.011192746 0.18785615 0.018107904 0.065867044
-0.051607247 -0.0456049 0.06339236 0.14790611 -0.032443732 -0.016252523 -0.054423355 0.03822947
0.23940106 -0.08284538 -0.11119658 -0.16287747 -0.01092345 0.072998166 -0.11431912 0.12939909
-0.12691626 -0.14527956 -0.093272634 -0.05687703 0.0030271139 -0.1025066 0.20595047 -0.15196097
0.0037137712 -0.1191375 0.1614915 0.011043586 0.036358025 -0.050794035 0.032570507 0.22818178
-0.016689949 0.0610175 -0.046455167 0.022301931 0.011795923 -0.22952262 0.07452468 -0.32783744
-0.0746208 -0.06150473 0.11899542 -0.047759414 -0.122946404 0.105461046 0.0796548 -0.11848213
0.18316773 -0.11228432 -0.11099506 0.033032153 -0.015342939 0.0014088864 -0.015030698 0.15414925
0.07592344 -0.12950256 0.10273855 0.16814843 -0.2678855 0.07991125 0.026401864 0.060289335
-0.10120583 -0.020537073 0.05300424 0.18200257 0.10152351 0.15691559 -0.103193656 0.06933124
-0.098608114 -0.1379722 -0.15724958 0.024932172 -0.2143709 -0.088216394 0.0029623017 0.1534496
-0.050935376 0.12663007 0.120461605 -0.06890939 -0.13694492 0.16530472 -0.05798643 -0.29060164
0.010101887 0.24626586 0.044283904 -0.010754685 -0.12138022 0.023776807 -0.1601577 -0.15890755
-0.08905992 -0.39391574 0.0025829563 0.039440244 0.04125206 -0.0039446214 0.075113244 0.08315946
0.07394379 0.20880707 0.15384819 -0.087102644 0.22414541 -0.1385541 -0.11507778 -0.11437225
0.2562139 -0.04136155 0.04628967 0.06971058 0.02337506 0.023904394 -0.08295592 -0.17553812
-0.12775601 -0.17752194 -0.132171 -0.14065635 0.031216493 -0.1358163 -0.14452916 -0.11883415
-0.10482118 -0.0045302757 0.07881815 -0.14950466 0.27275833 0.051499054 0.06933956 -0.14167829
-0.16509056 0.014987191 -0.23310034 0.11275988 0.0019971584 0.108472496 -0.044740055 -0.27074233
-0.07870277 -0.023876922 0.044604816 -0.023632428 0.23280989 0.10127788 0.16097757 -0.044519138
0.17254417 -0.040804382 -0.08217385 -0.1668796 -0.17473367 -0.11843518 -0.10882603 0.15810959
0.02057738 -0.074222356 0.061384305 -0.016065577 -0.011050487 0.042097677 0.06230629 -0.07041291
-0.23501526 -0.1623694 -0.15879479 -0.19939134 0.115115 0.08231788 -0.18142661 0.0068326993
-0.11779392 -0.04592401 -0.10539297 -0.040797506 0.0051041273 0.23778531 0.093741134 0.32345405
0.052344896 -0.16993017 -0.1189277 -0.10042651 -0.069716096 -0.14741883 0.05696682 0.06888598
0.12874563 -0.060040597 0.11884635 -0.07129871 -0.015164751 0.053148985 -0.01949609 -0.17635067
0.34023905 0.037477545 0.016104076 -0.040843666 -0.045187596 -0.10701184 0.0689722 -0.09063714
-0.041241407 -0.094514124 0.018033205 -0.018883532 -0.20048192 -0.16112502 -0.033625096 -0.14535877
-0.0483456 -0.03705735 0.08162928 -0.08102602 -0.23058172 -0.070689715 -0.19275789 -0.08668389
-0.064589374 -0.020896062 0.2218028 -0.124432184 0.09496784 -0.031146588 0.050078146 0.05713465
00000000: 7e2f ffbd 4759 6dbd 0f84 67be 5553 50be
00000010: 1a9d 593e eea9 763c 337a 6cbe c98c 313c
00000020: b5a6 f23c 1388 7f3d 93db bcbd 88f6 3b3e
00000030: 9d51 313e d5a9 a93d 5c0c af3c 1940 183d
00000040: e858 debd f11c a73d 8be2 09bb bc02 84be
00000050: c861 37bc 5d5d 403e 0757 943c 4de5 863d
00000060: 1f62 53bd 34cc 3abd dbd3 813d b374 173e
00000070: b8e3 04bd 0324 85bc 06eb 5ebd 8196 1c3d
00000080: 8d25 753e d7aa a9bd 08bb e3bd 5ac9 26be
00000090: 45f8 32bc 1080 953d 2520 eabd 3281 043e
000000a0: 56f6 01be 2ac4 14be b905 bfbd e3f7 68bd
000000b0: 8b62 463b fbee d1bd aee4 523e a89b 1bbe
000000c0: be62 733b 5dfe f3bd 075e 253e 28f0 343c
000000d0: 27ec 143d 680d 50bd a768 053d 7ca8 693e
000000e0: 5cb9 88bc 7ced 793d c647 3ebd 8ab2 b63c
000000f0: b043 413c fa07 6bbe 65a0 983d 4fda a7be
00000100: cad2 98bd 62ec 7bbd dfb3 f33d 609f 43bd
00000110: 53cb fbbd f6fb d73d 0e22 a33d c2a6 f2bd
00000120: 5290 3b3e 52f5 e5bd 6151 e3bd b94c 073d
00000130: f360 7bbc 62aa b83a 5143 76bc 4dd9 1d3e
00000140: c07d 9b3d 529c 04be 9768 d23d 1a2f 2c3e
00000150: 4a28 89be 82a8 a33d b948 d83c f3f1 763d
00000160: 0145 cfbd 5d3d a8bc f91a 593d e25e 3a3e
00000170: 8feb cf3d 7bae 203e 3257 d3bd 8afd 8d3d
00000180: 0df3 c9bd 9648 0dbe 0906 21be 8e3e cc3c
00000190: 0c84 5bbe ccaa b4bd 2d23 423b e421 1d3e
000001a0: 9da1 50bd 50ab 013e 93b4 f63d 5e20 8dbd
000001b0: 4a3b 0cbe a445 293e 2e83 6dbd bdc9 94be
000001c0: 6382 253c 1e2d 7c3e 0a63 353d 6b34 30bc
000001d0: 3196 f8bd 94c7 c23c 6100 24be a9b8 22be
000001e0: 0c65 b6bd 53af c9be d146 293b 188c 213d
000001f0: ecf7 283d e241 81bb f9d4 993d 824f aa3d
00000200: d76f 973d 85d1 553e 618a 1d3e df62 b2bd
00000210: 6086 653e 20e1 0dbe e6ad ebbd 003c eabd
00000220: 782e 833e bb6a 29bd 3d9a 3d3d 6cc4 8e3d
00000230: 0e7d bf3c 26d3 c33c cbe4 a9bd 44c0 33be
00000240: 79d2 02be 50c8 35be d657 07be 3808 10be
00000250: bbb9 ff3c 6e13 0bbe 74ff 13be 525f f3bd
00000260: 7dac d6bd b572 94bb 696b a13d c017 19be
00000270: fba6 8b3e acf0 523d e601 8e3d 1d14 11be
00000280: 800d 29be d68c 753c dbb1 6ebe a7ee e63d
00000290: c2e2 023b d426 de3d 5941 37bd bd9e 8abe
000002a0: eb2e a1bd 8999 c3bc 8ab3 363d cb98 c1bc
000002b0: b765 6e3e c76a cf3d 4ed7 243e b359 36bd
000002c0: 6baf 303e 7f22 27bd c34a a8bd 7ce2 2abe
000002d0: 62ed 32be 258e f2bd 2ee0 debd 7be7 213e
000002e0: e591 a83c e401 98bd 1c6e 7b3d f59b 83bc
000002f0: 1a0d 35bc 9d6e 2c3d e134 7f3d a534 90bd
00000300: d7a7 70be 2a44 26be 1a9b 22be 3e2d 4cbe
00000310: 6ac1 eb3d 4796 a83d e6c7 39be d6e4 df3b
00000320: f03d f1bd d11a 3cbd 45d8 d7bd 491b 27bd
00000330: 8640 a73b fe7d 733e 5afb bf3d c59b a53e
00000340: 9a67 563d 2d02 2ebe 5e90 f3bd 6aac cdbd
00000350: 50c7 8ebd f6f4 16be 0a56 693d 1814 8d3d
00000360: e5d5 033e 21ed 75bd b765 f33d 0f05 92bd
00000370: 9375 78bc c0b2 593d 44b6 9fbc 4595 34be
00000380: d033 ae3e 0e82 193d b2ec 833c b04b 27bd
00000390: a116 39bd 0629 dbbd 4c41 8d3d f79f b9bd
000003a0: c0ec 28bd 9f90 c1bd 5fba 933c a3b1 9abc
000003b0: 224b 4dbe f5fd 24be 78ba 09bd eed8 14be
000003c0: 0906 46bd 73c9 17bd 402d a73d f8f0 a5bd
000003d0: 9d1d 6cbe c5c5 90bd 5362 45be 5387 b1bd
000003e0: 6f47 84bd 382e abbc 4620 633e 4dd6 febd
000003f0: 807e c23d 2127 ffbc be1e 4d3d 0606 6a3d

bias f4 [64]
-0.01948828 -0.016881984 -0.023961397 0.02494226 -0.028491832 0.021341873 0.02426158 0.02244144
-0.023296598 -0.0204554 0.03274652 -0.019262027 -0.020840598 0.026060585 0.020111602 0.021220738
-0.021112615 -0.027591472 -0.022892645 -0.0242994 -0.022853646 0.020089507 -0.029421149 0.035416752
-0.021620084 -0.031178081 -0.030694623 -0.024103511 0.025424846 -0.02346637 -0.023539407 -0.024745079
0.021167014 -0.026766332 0.027356379 -0.031338073 0.028671699 0.024019603 -0.016904995 -0.018380653
-0.02179663 -0.021558018 0.02204151 -0.026053598 -0.023638085 0.024037898 0.021459214 -0.029400565
-0.025283119 0.025008732 -0.010653396 -0.025549302 -0.025439668 -0.019564174 -0.022128744 0.024973562
-0.027198402 0.023609137 0.020140143 0.024772717 -0.030016694 -0.02511568 -0.02636165 -0.023874793
00000000: e3a5 9fbc 164c 8abc b14a c4bc b653 cc3c
00000010: b467 e9bc 27d5 ae3c 39c0 c63c 1cd7 b73c
00000020: 82d8 bebc 1592 a7bc 3721 063d 66cb 9dbc
00000030: e7b9 aabc 027d d53c 16c1 a43c 1dd7 ad3c
00000040: 5df4 acbc 8307 e2bc 5b89 bbbc 890f c7bc
00000050: 9237 bbbc c092 a43c 9f04 f1bc 2811 113d
00000060: 9a1c b1bc 2d69 ffbc 4a73 fbbc ba74 c5bc
00000070: c447 d03c 8b3c c0bc b7d5 c0bc 31b6 cabc
00000080: 7266 ad3c 1145 dbbc 7c1a e03c 5a5c 00bd
00000090: e9e0 ea3c c2c4 c43c 587c 8abc 0693 96bc
000000a0: d98e b2bc 719a b0bc 6690 b43c 5b6e d5bc
000000b0: a8a4 c1bc 20eb c43c 3ccb af3c 74d9 f0bc
000000c0: 8b1e cfbc 1ddf cc3c 958b 2ebc c54c d1bc
000000d0: da66 d0bc 0c45 a0bc 5747 b5bc 5b95 cc3c
000000e0: 2fcf debc f367 c13c f1fc a43c 27f0 ca3c
000000f0: 92e5 f5bc 66bf cdbc 63f4 d7bc 1295 c3bc

weight f4 [1, 64]
-0.019099543 -0.06209292 -0.14876392 0.029533567 -0.018817855 0.12941182 0.0043463367 0.18283911
-0.06793607 -0.088284865 0.076768845 -0.057860456 -0.15624301 0.07749292 0.1373622 0.18932106
-0.09906941 -0.10189954 -0.015439814 -0.15634531 -0.015470715 0.07986326 -0.14964586 0.12619835
-0.02155531 -0.21619159 -0.08393734 -0.16030566 0.063839294 -0.14114544 -0.2250158 -0.023574384
0.13065594 -0.016903782 0.008317861 -0.06200292 0.10467638 0.06581047 -0.07310513 -0.05510344
-0.12282696 -0.071372546 0.11698487 -0.17585564 -0.14887542 0.10108999 0.14782509 -0.09110011
-0.08611389 0.2808273 -0.0022495023 -0.21827106 -0.030637862 -0.25582126 -0.080037236 0.056978595
-0.19832525 0.02448604 0.15454994 0.11867572 -0.12123741 -0.20712976 -0.10626502 -0.16258466
00000000: a576 9cbc 2555 7ebd 9255 18be 61f0 f13c
00000010: e727 9abc 8884 043e b76b 8e3b 2d3a 3b3e
00000020: 1122 8bbd b2ce b4bd fc38 9d3d 16ff 6cbd
00000030: 2bfe 1fbe 9cb4 9e3d ada8 0c3e 61dd 413e
00000040: e7e4 cabd b5b0 d0bd 46f7 7cbc fc18 20be
00000050: e278 7dbc 598f a33d c43c 19be 243a 013e
00000060: c394 b0bc 5461 5dbe 57e7 abbd 2b27 24be
00000070: 2dbe 823d 6e88 10be 8b6a 66be 111f c1bc
00000080: acca 053e cd79 8abc a347 083c c6f6 7dbd
00000090: 9260 d63d a4c7 863d 24b8 95bd 25b4 61bd
000000a0: b48c fbbd c52b 92bd c395 ef3d 8013 34be
000000b0: cc72 18be 4508 cf3d 765f 173e b292 babd
000000c0: 7b5c b0bd 99c8 8f3e 636c 13bb 7382 5fbe
000000d0: 41fc fabc 01fb 82be 90ea a3bd 6362 693d
000000e0: c615 4bbe f396 c83c 5742 1e3e 420c f33d
000000f0: 524b f8bd d319 54be 7aa1 d9bd 987c 26be

weight f4 [3, 64]
0.01937396 0.06651863 0.03708569 0.059506703 -0.021429136 0.0024744764 0.00080624846 -0.06105805
-0.016164364 0.048338518 -0.07321928 -0.05386787 0.00089785527 0.0521926 0.018574223 -0.041783933
0.059866093 0.07247732 -0.005691331 0.016051847 -0.0110400235 -0.046206795 0.022073884 0.018183805
0.015943607 -0.0006449356 -0.038976043 0.02220527 -0.017333783 0.06767858 0.021984413 -0.036164187
-0.022062322 0.0071262163 -0.07361474 -0.014795152 -0.027793795 0.026710631 0.059162606 -0.016481739
0.061823748 -0.016672844 -0.06394641 0.00287859 -0.059423055 -0.021445753 -0.007130825 0.006629388
0.0078035155 0.030608082 0.03776999 0.04674501 0.019498467 -0.01151841 -0.010357219 -0.045438204
-0.062485516 0.013188667 -0.048673414 -0.026493566 -0.04910416 -0.057941437 -0.06206075 -0.055238053
0.018452134 -0.012869 0.00837124 -0.019861775 -0.026091766 0.032048028 0.037490677 0.03225381
-0.031866964 -0.04270069 0.0353997 0.057956163 -0.045719627 -0.018775677 0.020734787 -0.0055103195
-0.054193657 -0.036058296 -0.042684186 -0.057509456 0.036645815 -0.0069280486 -0.049540114 0.023180623
-0.056642395 0.03651512 0.03563593 0.021385593 -0.023053152 -0.032696318 0.020867566 -0.015245717
-0.023580972 0.03358214 0.05905945 0.03013118 0.056442264 -0.04402329 -0.05596489 -0.024410842
-0.019009473 0.054743525 0.01882707 0.047905885 0.041671544 -0.021295393 -0.027051149 0.033035498
0.03771992 -0.0530913 -0.05082759 -0.05827046 0.024372768 -0.030977407 -0.039659616 0.016735807
0.039859083 0.028356262 0.06073281 -0.029411757 0.061273474 0.000944313 0.03977562 0.008523445
-0.036782328 -0.05029905 -0.04123919 -0.03755859 0.042406913 -0.024586245 -0.03556329 0.02797614
0.039096095 -0.0052816835 0.036987938 -0.0010692626 0.039458487 -0.028203065 -0.038285263 0.039341602
-0.005214741 -0.038576867 0.041787993 0.032134157 -0.020373182 0.04317014 0.020810591 -0.035846915
0.03612073 -0.030409046 0.0050446554 -0.038572576 0.035911806 -0.032057952 -0.036707237 0.044341654
0.03946031 -0.03535696 0.009291513 -0.009068234 -0.024235416 0.01805171 -0.00055496953 0.03651045
-0.037469193 -0.035421513 0.039862383 -0.042491626 0.015556945 0.039929483 0.032791056 -0.03489405
-0.041039042 0.014791297 0.011016781 0.009574374 -0.035563644 0.03655389 0.042832315 0.022846995
0.021332176 -0.03701895 -0.005640071 0.047404055 -0.006850365 0.04849002 0.018811772 0.039992224
00000000: 24b6 9e3c eb3a 883d 2ae7 173d 4dbd 733d
00000010: 288c afbc d32a 223b 6b5a 533a 0118 7abd
00000020: 216b 84bc 9cfe 453d fdf3 95bd 8ea4 5cbd
00000030: 0c5e 6b3a e8c7 553d f828 983c a125 2bbd
00000040: 2636 753d fd6e 943d 587e babb 2a7f 833c
00000050: 37e1 34bc 5643 3dbd 4ad4 b43c 34f6 943c
00000060: 2b9c 823c e510 29ba 58a5 1fbd d4e7 b53c
00000070: 94ff 8dbc 119b 8a3d a818 b43c e620 14bd
00000080: 0bbc b4bc 0983 e93b 53c3 96bd 5d67 72bc
00000090: d0af e3bc 41d0 da3c 7d54 723d b604 87bc
000000a0: e63a 7d3d 7d95 88bc 56f6 82bd baa6 3c3b
000000b0: 9765 73bd 01af afbc b2a9 e9bb 563b d93b
000000c0: a2b4 ff3b cdbd fa3c b4b4 1a3d b277 3f3d
000000d0: 40bb 9f3c b7b7 3cbc 53b1 29bc 691d 3abd
000000e0: d0f0 7fbd 4715 583c c65d 47bd 0909 d9bc
000000f0: 7221 49bd 0054 6dbd 6a33 7ebd 4c41 62bd
00000100: ee28 973c 80d8 52bc 8727 093c 29b5 a2bc
00000110: 66be d5bc cb44 033d d38f 193d 921c 043d
00000120: ef86 02bd ebe6 2ebd 47ff 103d 7163 6d3d
00000130: 8144 3bbd 73cf 99bc 00dc a93c e98f b4bb
00000140: 2bfa 5dbd ddb1 13bd 9dd5 2ebd 098f 6bbd
00000150: ec19 163d af04 e3bb 93ea 4abd 4ae5 bd3c
00000160: db01 68bd e190 153d fbf6 113d d730 af3c
00000170: f7d9 bcbc 93ec 05bd 75f2 aa3c 2cc9 79bc
00000180: e22c c1bc 6d8d 093d 52e8 713d aad5 f63c
00000190: 0130 673d c451 34bd 713b 65bd 3ff9 c7bc
000001a0: c1b9 9bbc bf3a 603d 3a3b 9a3c f638 443d
000001b0: c8af 2a3d ad73 aebc 5f9a ddbc 3b50 073d
000001c0: 3480 1a3d 4376 59bd 9730 50bd 02ad 6ebd
000001d0: 66a9 c73c 55c4 fdbc 1f72 22bd 8819 893c
000001e0: 4743 233d 644b e83c f8c2 783d edf0 f0bc
000001f0: e5f9 7a3d c68b 773a c3eb 223d eba5 0b3c
00000200: 11a9 16bd 6006 4ebd 6dea 28bd 09d7 19bd
00000210: dfb2 2d3d 1869 c9bc d0aa 11bd 382e e53c
00000220: 3a23 203d f911 adbb aa80 173d 8026 8cba
00000230: 399f 213d 1d0a e7bc 02d1 1cbd a924 213d
00000240: 6be0 aabb c702 1ebd e329 2b3d 1b9f 033d
00000250: a9e5 a6bc 2cd3 303d f97a aa3c 37d4 12bd
00000260: 55f3 133d 641c f9bc a34d a53b 47fe 1dbd
00000270: 4218 133d 334f 03bd 545a 16bd 989f 353d
00000280: 22a1 213d 76d2 10bd 6e3b 183c ee92 14bc
00000290: 5a89 c6bc 2ee1 933c 607b 11ba fb8b 153d
000002a0: 4c79 19bd 2616 11bd bd46 233d b30b 2ebd
000002b0: 8fe2 7e3c 198d 233d ea4f 063d 10ed 0ebd
000002c0: 8e18 28bd 3257 723c bb7f 343c d6dd 1c3c
000002d0: 2fab 11bd 88b9 153d f070 2f3d 9f29 bb3c
000002e0: d1c0 ae3c 2fa1 17bd 58d0 b8bb c12a 423d
000002f0: 0779 e0bb 799d 463d 251b 9a3c e3ce 233d

bias f4 [3]
-0.0067662504 -0.0169737 0.022050556
00000000: 6cb7 ddbb 6e0c 8bbc 5ea3 b43c
